model.tflite (tflite, 2656 bytes, 6 tensors)

sequential/dense_1/BiasAdd/ReadVariableOp f4 [10]
000000 2b 20 12 3e 26 e0 0a 3c 63 23 80 bc 66 ff 42 bb
       0.14270084 0.008476293 -0.015641874 -0.002975428
000010 2e 93 da b9 f0 fa 97 3b c1 73 77 3e dc 6c 9b 3e
       -0.00041689858 0.0046380684 0.2416525 0.3035649
000020 84 5e c8 3e 53 c6 4b 3d
       0.3913461 0.049749684

sequential/dense_2/BiasAdd/ReadVariableOp f4 [3]
000000 10 fa 86 bf 76 24 36 3e 03 6b 60 3f
       -1.0545063 0.17787346 0.87663287

sequential/dense/BiasAdd/ReadVariableOp f4 [10]
000000 c6 5f 15 3f cd 76 9f 3d 00 00 00 00 1e 88 6b bd
       0.58349264 0.07786331 0.0 -0.05750286
000010 6c e4 dd 3b 21 d4 ec 3c cd 67 7a 3d 95 25 e9 bd
       0.006771615 0.028909745 0.06113415 -0.11384121
000020 03 bb d3 3e 8a 4f 0c be
       0.41353616 -0.13702217

sequential/dense/MatMul f4 [10, 4]
000000 01 60 51 bf 98 90 9d 3f 76 07 28 bc 75 2c 8f be
       -0.81787115 1.2309752 -0.010255685 -0.27963606
000010 9e f5 b5 3e f3 18 7f bd 55 59 66 bd 15 f1 67 be
       0.35538954 -0.062279653 -0.056237537 -0.22650559
000020 a4 98 78 be bc 6f 2b be 88 2c 48 be a8 fb 03 bf
       -0.24276978 -0.16741842 -0.19548237 -0.5155587
000030 09 fb 15 bf 91 8d f3 be 6e 27 ac 3e 08 0f 4f 3e
       -0.58586174 -0.47568944 0.33623832 0.20220578
000040 4a 2a 3a 3f 1b 8a bc be 12 40 57 3e 47 07 06 3f
       0.7272078 -0.36824116 0.21020535 0.52354854
000050 79 dd 0c bf 78 9d ff be ce 97 64 3f b2 85 77 3f
       -0.5502544 -0.49924827 0.89294136 0.9668838
000060 bc 95 17 bf 33 b4 60 3e a6 ea bd be 65 d3 75 3d
       -0.5921285 0.2194374 -0.37093085 0.060016055
000070 53 a9 d3 be 45 08 8f 3e 15 7e 10 3e aa 78 e0 be
       -0.41340122 0.27935997 0.14110596 -0.4384206
000080 ac 75 a6 bf 8f bd 3f 3f 34 68 6c 3e 78 4f f8 be
       -1.3004661 0.7489862 0.23086625 -0.4849813
000090 0b 9c 18 bf 11 55 c6 3e d4 99 ad be 1f e3 68 3d
       -0.596131 0.38736776 -0.33906424 0.056857225

sequential/dense_1/MatMul f4 [10, 10]
000000 a9 87 0a 3f 4e 57 a7 3d 08 a8 68 bd c0 8a 52 3d
       0.5411325 0.08170949 -0.056800872 0.051401854
000010 fb 47 cd be fd 09 b2 be 28 38 f2 3d a4 f5 80 3e
       -0.4009398 -0.34773245 0.11827117 0.2518741
000020 bd 2d 21 3c 5c 27 66 be 62 cf 12 3f 93 ae e9 be
       0.009837565 -0.22475952 0.5734769 -0.45641002
000030 5c c7 91 bd fb ea a1 3e 28 a2 12 bf 6b 6f 03 3e
       -0.07118103 0.31624588 -0.5727868 0.12835471
000040 91 0d e1 3d ba 6b a2 3d e9 18 cf 3e c1 fb b0 be
       0.10988916 0.079307035 0.40448692 -0.34567073
000050 15 82 40 be 4c 05 1c be 50 44 eb be 07 03 e7 3c
       -0.18799622 -0.15236396 -0.45950556 0.028199686
000060 4a e3 ab 3e ed 48 99 3f 10 6e 17 3e 42 5d c8 be
       0.33571845 1.197538 0.1478808 -0.3913365
000070 bf 48 38 3f 52 51 58 be 27 05 5b be f9 39 84 be
       0.71986 -0.21124771 -0.21388684 -0.2582548
000080 98 6a b3 3e 6f 34 80 3e dd 2b db be 22 05 1a 3e
       0.35042262 0.25040004 -0.42806903 0.1504102
000090 37 3d fb be 12 0f d3 3e 86 c0 63 bd d5 b8 04 bf
       -0.4907014 0.41222435 -0.055603527 -0.5184453
0000a0 14 19 d7 3e 43 83 b1 be 00 54 0f 3c 07 d6 e9 3c
       0.4201132 -0.34670457 0.0087480545 0.028544439
0000b0 61 65 1b bf f2 5d 93 3e 07 c5 a5 3e ce 0a b9 be
       -0.60701567 0.28782612 0.32376882 -0.36141056
0000c0 22 f5 4b 3e 9d 9f 45 be b2 a2 92 be 3c 76 d8 3e
       0.1991773 -0.19299169 -0.28639752 0.42277706
0000d0 7e 5f d8 be 12 c7 2f be d8 38 75 3e 21 db 05 bf
       -0.42260355 -0.17165783 0.23947465 -0.5228749
0000e0 78 b4 89 3e a4 7a 43 3e b6 67 5f bc 00 79 34 3c
       0.268955 0.19089752 -0.013635566 0.011015177
0000f0 0f 14 c7 3e 80 41 1b be a0 8b 01 3f 54 49 6c 3e
       0.3888249 -0.15161705 0.50603676 0.23074847
000100 12 68 1d 3d b2 24 c8 be 00 0e 10 3e 99 6c dd be
       0.038429327 -0.39090496 0.1406784 -0.43246916
000110 89 5f a1 3d 4f a0 4a be 0a fa 8a 3f 24 46 79 3e
       0.0787955 -0.19787715 1.0857556 0.24343163
000120 c4 00 87 be 6f e9 31 3e a1 c7 97 be a7 86 04 bf
       -0.26367772 0.17374204 -0.29644492 -0.51767963
000130 de ad 6c 3e 86 75 cf 3e 13 9d 83 3f df 26 74 3d
       0.231132 0.4051935 1.028231 0.059607383
000140 c0 e3 4f 3f d2 ec b0 be 18 66 8f 3e 70 6e e9 3e
       0.81206894 -0.3455568 0.2800758 0.4559207
000150 30 19 60 be 86 4b 02 bf 7d 48 4e be 0c ae eb be
       -0.21884608 -0.5089649 -0.2014484 -0.46031225
000160 cf 25 e0 3e 73 80 6f 3e bc cb 8e 3e 92 62 b7 3c
       0.43778846 0.23388843 0.27889812 0.02238587
000170 1a 21 d8 3e ed 63 da be 41 5c 20 bf c9 25 80 bd
       0.42212754 -0.42654362 -0.6264077 -0.06257207
000180 aa b2 38 3e 28 64 ad be 32 05 0c 3f ff d0 5f be
       0.18036905 -0.33865476 0.5469543 -0.2185707

sequential/dense_2/MatMul f4 [3, 10]
000000 3d 70 56 be 63 89 80 3f a2 15 2a 3e a6 ab e0 3e
       -0.20941253 1.0041927 0.16609815 0.43880957
000010 d6 fa 53 3f c6 d8 f9 bd 6f 6a 13 3f 26 f8 8c 3f
       0.8280462 -0.121995494 0.5758428 1.1013229
000020 a5 39 62 3f 9e 48 60 3f 30 a8 ef bd a0 c3 9d 3e
       0.8836921 0.87610805 -0.11702001 0.30813313
000030 50 09 89 bf a2 c3 cc 3e de 09 e1 b8 b0 d1 a5 3e
       -1.0705967 0.39993006 -0.00010730674 0.3238654
000040 57 e7 54 3f 04 26 d0 3e 7a 48 55 3f ad c2 23 bf
       0.83165497 0.40654004 0.83313715 -0.63968927
000050 a0 f2 f0 be 83 92 52 bc 85 81 83 3f 83 0d 99 be
       -0.47060108 -0.012852314 1.0273901 -0.2989312
000060 40 43 94 bd 9f 9c 2a 3f 38 d3 15 be 2c 2d 97 bf
       -0.072393894 0.66645235 -0.14631355 -1.181066
000070 c8 32 06 be a6 9f 60 be
       -0.13105309 -0.21935901
